diplomDjango/models/model.pth (torch, 18344 bytes, 7 tensors)

layer1.0.weight f4 [64, 18]
0	0x3e422e4a	0.1896297
1	0xbe9e63a9	-0.3093541
2	0xbea9215f	-0.33033273
3	0x3e946c42	0.28988844
4	0x3ecebe75	0.40379682
5	0x3ec605a2	0.38676172
6	0xbd3bdd85	-0.045865554
7	0xbe07982b	-0.13241641
8	0xbe33abcd	-0.17546006
9	0x3cfcd7fb	0.030864706
10	0xbe43aa9b	-0.1910805
11	0xbc64e8c7	-0.013971514
12	0x3d22aa26	0.039713047
13	0xbe29fb2d	-0.16599722
14	0xbdaeb45e	-0.08530496
15	0x3bf03a7a	0.0073311897
16	0xbe1e5c26	-0.1546484
17	0xbe2f7537	-0.17134558
18	0xbebfc504	-0.37454998
19	0x3e3e0b96	0.18559107
20	0x3dc7bbf2	0.097526446
21	0xbe2928a2	-0.16519406
22	0x3ed217a8	0.41033673
23	0x3e4e2938	0.20132911
24	0xbcc3bc93	-0.02389363
25	0x3e313330	0.17304683
26	0xbe989883	-0.29803857
27	0x3d2229c9	0.03959063
28	0xbe54f22a	-0.20795503
29	0xbdceeeda	-0.10104151
30	0xbc5e603e	-0.013572751
31	0xbb6175ce	-0.0034402492
32	0x3d8f50c0	0.06997824
33	0xbe6b9927	-0.23007642
34	0xbe16a842	-0.14712623
35	0xbe189d42	-0.14903739
36	0x3e262661	0.16225578
37	0xbea45f5e	-0.3210401
38	0xbe58db3f	-0.21177386
39	0x3eabb400	0.33535767
40	0x3ef802ce	0.4843964
41	0x3ee25bcd	0.44210663
42	0xbd849402	-0.06473543
43	0xbe741d42	-0.23839286
44	0xbdc208e2	-0.094743505
45	0xb9d68698	-0.0004091754
46	0xbed1d575	-0.40983167
47	0x3d242858	0.040077537
48	0x3d48ddbd	0.04903959
49	0xbe749682	-0.23885539
50	0xbdb73a16	-0.08946626
51	0x3d6a279d	0.057166684
52	0xbe21d754	-0.15804797
53	0xbeaeb637	-0.34123394
54	0xbeb4aeae	-0.3528952
55	0x3deb15a6	0.114787385
56	0x3ebc9f7c	0.36840427
57	0xbdfe32cf	-0.12412035
58	0x3e8e5371	0.27798036
59	0x3e1a6cd3	0.15080576
60	0xbdbeb728	-0.09312278
61	0x3c22c954	0.009935696
62	0xbe5d471d	-0.21609159
63	0x3df33d7d	0.11876962
64	0xbe37ddb4	-0.17955667
65	0xbe1d6038	-0.15368736
66	0xbb8dd5c2	-0.0043284604
67	0xbe4c9e27	-0.19982205
68	0x3d6ad292	0.05732972
69	0xbde8c733	-0.11366119
70	0xbddb7ffb	-0.1071777
71	0xbd6e8890	-0.058235705
72	0xbf15b4e3	-0.58479136
73	0x3df79609	0.12089164
74	0x3ee3fba6	0.4452793
75	0xbe296793	-0.16543417
76	0x3ec937ce	0.39300388
77	0x3e325517	0.17415272
78	0xbd92ee13	-0.07174315
79	0xbd96ce14	-0.07363525
80	0xbe50f8ad	-0.20407362
81	0x3e7dd86d	0.24789591
82	0xbe3ddac8	-0.1854049
83	0xbe07a700	-0.13247299
84	0x3cdc543e	0.026895639
85	0xbe3381aa	-0.17529932
86	0x3d8dcbeb	0.0692366
87	0xbe0bdc00	-0.13658142
88	0xbe915b98	-0.28390193
89	0xbe19a5bb	-0.15004627
90	0xbefc2e36	-0.49254006
91	0x3eabe63c	0.33574092
92	0x3e8dc606	0.27690142
93	0xbe727bd2	-0.23680046
94	0x3ea2adea	0.3177331
95	0x3e8792f5	0.26479307
96	0xbc03cf90	-0.008045092
97	0xbe250994	-0.16116935
98	0xbe635202	-0.22199252
99	0xbdd707ed	-0.104995586
100	0xbe0036e6	-0.12520942
101	0x3c4146c4	0.011796657
102	0xbc9503ac	-0.018190227
103	0xbddf2325	-0.10895375
104	0x3da39304	0.079870254
105	0xbe0f9231	-0.14020611
106	0xbe4ba33d	-0.19886489
107	0xbd62d42b	-0.05537812
108	0x3e323889	0.17404379
109	0xbe283ce4	-0.16429478
110	0xbde14132	-0.10998763
111	0x3e14f442	0.14546302
112	0x3f304cc6	0.68867147
113	0x3e983b90	0.29732943
114	0x3ce0e12c	0.02745112
115	0xbe6ee35e	-0.23328921
116	0xbe2dc365	-0.16969068
117	0x3cc7e900	0.024403095
118	0x3d0260aa	0.031830467
119	0xbce4492c	-0.027866922
120	0xbcda9767	-0.026683522
121	0xbc20a472	-0.009804832
122	0xbdcc3005	-0.099700965
123	0xbd2b8f1b	-0.041884523
124	0xbd89f7bc	-0.06736705
125	0xbd9de593	-0.077098034
126	0x3e7841af	0.24243806
127	0x3ec05857	0.37567398
128	0xbd234dd0	-0.03986913
129	0xbe164b14	-0.14677078
130	0xbedf2e84	-0.43590176
131	0xbea75278	-0.32680106
132	0xbcc323c8	-0.023820773
133	0xbee547f2	-0.44781452
134	0x3da59332	0.08084716
135	0xbc0fd0c4	-0.008777801
136	0x3d9bed50	0.07613623
137	0x3d020b9a	0.031749345
138	0x3cd3da1f	0.025860844
139	0xbc9a2e92	-0.018821035
140	0x3dfe275b	0.1240985
141	0x3dd66ac1	0.104695804
142	0x3ccef64b	0.025263926
143	0x3d8597a1	0.065230615
144	0x3db7e8fc	0.08979985
145	0xbe0665c4	-0.13124758
146	0xbea4f2ca	-0.32216483
147	0x3e0aee89	0.13567556
148	0x3f26793f	0.65028757
149	0x3ec8600e	0.39135784
150	0xbd2d3322	-0.042285092
151	0xbe80f1c1	-0.25184444
152	0x3c3d55e3	0.0115561215
153	0x3a745ae8	0.00093214074
154	0xbce15bd3	-0.027509606
155	0x3c10d231	0.008839176
156	0x3cbb1868	0.022838786
157	0xbe1787cc	-0.14797896
158	0x3c8d7553	0.017267859
159	0x3cfd2e4d	0.030905867
160	0xbd92685d	-0.07148812
161	0xbe32f78b	-0.17477243
162	0xbe85309a	-0.26013643
163	0xbd6df37a	-0.058093525
164	0x3da05323	0.07828357
165	0x3da79fec	0.081847996
166	0x3e6fbba1	0.23411418
167	0x3d839451	0.064247735
168	0x3c019333	0.00790863
169	0x3dc59a04	0.09648517
170	0xbe108c06	-0.14115915
171	0x3c98d299	0.018655108
172	0x3d14bd33	0.036313247
173	0x3caf49dd	0.021397525
174	0xbe23893c	-0.1597032
175	0x3b97e83f	0.00463584
176	0xbdc4a70a	-0.09602173
177	0xbdb02253	-0.08600297
178	0xbd8c4060	-0.06848216
179	0xbde2b9c8	-0.11070591
180	0xbe471817	-0.19442783
181	0x3cd9b39c	0.026574902
182	0x3e92510c	0.2857746
183	0xbc96f9f5	-0.018429736
184	0x3e73042c	0.2373206
185	0x3e38a8bd	0.18033119
186	0xbdea3251	-0.11435378
187	0xbbde1004	-0.0067768116
188	0xbe533df5	-0.20629103
189	0xbd2dcc7a	-0.042431332
190	0xbe8a0cbd	-0.26962844
191	0xbe09e295	-0.1346534
192	0xbc85aaf8	-0.016316876
193	0xbe59517d	-0.21222492
194	0x3d88c648	0.06678444
195	0xbe2264fc	-0.15858835
196	0xbdd803fc	-0.10547635
197	0xbdf8fe19	-0.1215784
198	0xbeaceef9	-0.33776072
199	0xbcc682cf	-0.024232296
200	0x3e5a480f	0.2131655
201	0xbe1a08fc	-0.1504249
202	0x3ee4a388	0.44656014
203	0x3dc62b2d	0.09676204
204	0xbd837794	-0.06419292
205	0x3da3729e	0.07980846
206	0xbebdb185	-0.370495
207	0xbc37d1e6	-0.011219477
208	0xbd748feb	-0.059707563
209	0xbdd7632a	-0.10516961
210	0xbd6601ec	-0.056154177
211	0xbcd2a905	-0.02571536
212	0x3d228800	0.03968048
213	0xbe38993e	-0.18027207
214	0xbe22b603	-0.15889744
215	0xbdede395	-0.116156735
216	0x3d3561f4	0.04428287
217	0xbe245ac8	-0.16050255
218	0xbe86dc81	-0.26340106
219	0x3e1ae952	0.15128067
220	0x3efc5dac	0.49290216
221	0x3e996287	0.29957983
222	0xbd9a8b0f	-0.075460546
223	0xbe87047e	-0.26370615
224	0xbd880e64	-0.0664337
225	0x3db9f544	0.09079984
226	0xbee072b3	-0.4383751
227	0xbd21a608	-0.03946498
228	0x3d867c17	0.06566637
229	0xbe787a99	-0.24265517
230	0x3d17d8e6	0.037072085
231	0x3ce74147	0.028229369
232	0x3d4f8375	0.050662477
233	0xbea50a39	-0.32234362
234	0xbe3c989c	-0.18417591
235	0x3e80e7b8	0.25176787
236	0x3eb6e893	0.35724315
237	0xbe930467	-0.28714296
238	0x3f0d7f39	0.5527225
239	0x3efcb827	0.49359247
240	0x3be7b7c2	0.007071466
241	0xbde01cb0	-0.10942972
242	0xbd8bf9f2	-0.06834783
243	0xbcffda97	-0.031232161
244	0x3d9121aa	0.07086499
245	0x3c9e3c51	0.01931587
246	0x3d04ed0f	0.03245264
247	0xbea08465	-0.3135101
248	0x3e135286	0.14386949
249	0xbde245f2	-0.11048497
250	0xbd9a9b98	-0.075492084
251	0xbd062bda	-0.032756664
252	0x3e869b5c	0.26290405
253	0xbe802916	-0.25031346
254	0xbe9748b7	-0.29547665
255	0x3e3e21cc	0.1856758

layer1.0.bias f4 [64]
0	0x3ddec2b1	0.10876978
1	0xbc51f334	-0.012814332
2	0x3e525f70	0.20544219
3	0x3d00685a	0.031349517
4	0x3cc3e65a	0.023913551
5	0x3dfa71ce	0.12228738
6	0x3e5a32d0	0.21308446
7	0x3e9ee9f2	0.3103786
8	0x3e973062	0.295291
9	0xbe456c00	-0.1927948
10	0x3d8eece9	0.06978781
11	0x3d301b04	0.042994514
12	0x3e5d856a	0.21632925
13	0x3de2ab34	0.11067811
14	0x3e875eb5	0.26439443
15	0x3e0b116c	0.13580865
16	0x3d44d10a	0.048050918
17	0x3d8515d8	0.06498307
18	0x3e46f79f	0.19430397
19	0x3e5a7c38	0.21336448
20	0x3e70a0a7	0.23498784
21	0x3e32f1de	0.17475078
22	0x3e110dff	0.14165495
23	0xbcb0eaef	-0.0215964
24	0x3cc666c0	0.024218917
25	0xbdb77bda	-0.0895917
26	0x3dba6998	0.09102172
27	0x3d911cac	0.07085547
28	0x3de4d4c4	0.11173394
29	0x3d123ec1	0.035704378
30	0xbb4c334d	-0.0031158507
31	0xbe0a60d0	-0.13513494
32	0x3e4c2295	0.19935067
33	0x3d6f6610	0.058446944
34	0x3e469d42	0.19395927
35	0x3df4247e	0.11921023
36	0xbdba0d44	-0.090845615
37	0xbc1b9330	-0.009495541
38	0x3e0413f0	0.1289823
39	0xbd5d128a	-0.05397276
40	0x3d87e5c2	0.0663562
41	0x394bb056	0.00019425279
42	0x3e102d65	0.14079817
43	0x3e3ac0de	0.18237635
44	0x3c0b9b59	0.0085209245
45	0x3dcc8963	0.09987142
46	0x3dd910e5	0.105989255
47	0x3d85b707	0.0652905
48	0x3e557e2a	0.20848909
49	0x3e60586c	0.2190873
50	0x3e8ad8ad	0.27118436
51	0x3e4865ef	0.19570135
52	0x3e0351d4	0.12824184
53	0x3dffa9d0	0.12483561
54	0x3de38a14	0.11110321
55	0x3da2c8e9	0.07948477
56	0x3e92c200	0.28663635
57	0x3e868484	0.26272976
58	0x3e180b1f	0.14847992
59	0x3d6683c0	0.05627799
60	0xbe4d462e	-0.20046303
61	0x3d422704	0.04740049
62	0xbc43dc70	-0.011954412
63	0xbd688723	-0.0567695

layer2.0.weight f4 [32, 64]
0	0x3f1228e3	0.5709364
1	0x3d9abb71	0.07555283
2	0x3ec8b113	0.39197597
3	0x3e6a8111	0.22900797
4	0x3e8866fe	0.26641077
5	0x3e8287d4	0.25494254
6	0x3cc43e49	0.023955481
7	0xbce0f886	-0.027462255
8	0x3e9a48c1	0.30133632
9	0x3d0b8040	0.034057856
10	0x3d5cc921	0.05390275
11	0x3e4e9208	0.20172894
12	0x3e96909c	0.29407203
13	0x3e374e06	0.17900857
14	0x3eb15a3f	0.34639165
15	0x3e276aea	0.16349378
16	0x3e4ac56e	0.19801876
17	0x3e3f929b	0.1870827
18	0x3e25656f	0.16151975
19	0x3e800d05	0.25009933
20	0x3e9a20dd	0.30103198
21	0x3e28fd10	0.16502786
22	0x3e0b5e5f	0.13610218
23	0x3da5d1b7	0.080966406
24	0x3e75e03b	0.24011318
25	0x3bed870c	0.007248765
26	0x3e37e4fb	0.17958443
27	0xbdcf5ee7	-0.10125523
28	0x3e80c124	0.25147355
29	0x3a1a16ff	0.00058780605
30	0x3e5588f0	0.20853019
31	0x3eb12f26	0.34606284
32	0x3e3af277	0.18256555
33	0x3d970c27	0.07375365
34	0x3eb99635	0.3624741
35	0x3e81100a	0.2520755
36	0x3de2c817	0.1107332
37	0x3dbfcc12	0.09365095
38	0x3e8b8fe5	0.2725822
39	0x3dba982e	0.09111057
40	0x3e3bb363	0.1833015
41	0xbd3579d3	-0.044305634
42	0x3e99c785	0.30035034
43	0x3ebe3a3f	0.37153813
44	0x3e0e886b	0.13919227
45	0x3e1b0d1b	0.15141718
46	0x3e67aabc	0.22623724
47	0x3e42e90a	0.1903421
48	0x3e116e3b	0.14202206
49	0x3e873ff1	0.2641597
50	0x3e757867	0.23971711
51	0x3ef859c4	0.48505986
52	0x3e0d4932	0.13797453
53	0x3dfc4268	0.123173535
54	0x3ea7b922	0.32758433
55	0x3e65ef37	0.22454534
56	0xbdbc3b51	-0.09191001
57	0x3d6940eb	0.056946676
58	0x3e3908c8	0.18069756
59	0xbd11c084	-0.035583988
60	0x3d90f2f9	0.07077593
61	0x3d7c0baf	0.06153458
62	0x3e20d0fc	0.15704721
63	0xbd578889	-0.052620444
64	0xbe1f8b3f	-0.15580462
65	0x3de99711	0.11405767
66	0xbe9cdcd5	-0.3063723
67	0xbbf123ce	-0.0073590046
68	0xbde0bcbe	-0.109735
69	0xbd426ec4	-0.047468916
70	0xbd8da002	-0.06915285
71	0x3e97bb11	0.29634908
72	0xbe191083	-0.14947705
73	0x3e0cc38e	0.13746473
74	0x3c65f780	0.014036059
75	0x3d5377c1	0.051627878
76	0xbe32b4bb	-0.17451756
77	0xbe48d7e2	-0.19613603
78	0xbe918ade	-0.2842626
79	0xbdfcb114	-0.123384625
80	0xbd76899b	-0.060189825
81	0x3ca3bfdf	0.019988952
82	0xbe1a90c8	-0.15094292
83	0xbe0ae861	-0.13565208
84	0xbe6119c6	-0.21982488
85	0xbe2bafd3	-0.1676629
86	0xbd1f206a	-0.03884927
87	0xbdd8df3c	-0.105894536
88	0xbce691d5	-0.02814571
89	0xbe29e652	-0.16591766
90	0xbdd5bd35	-0.10436479
91	0x3cdd9ab9	0.027051317
92	0x3ca8844e	0.0205709
93	0x3e722f99	0.2365097
94	0x3dda95fe	0.1067314
95	0xbcb11ccc	-0.021620177
96	0xbe28413a	-0.16431132
97	0xbd95f4ef	-0.07322108
98	0xbea017ab	-0.31268057
99	0x3d907c8f	0.07055008
100	0x3de87386	0.11350159
101	0x3d597245	0.05308749
102	0xbdde6ce0	-0.1086061
103	0x3d1c35c2	0.038137205
104	0xbcad194c	-0.021130227
105	0x3eac47ba	0.33648473
106	0xbdfec0fd	-0.12439153
107	0xbe62aa79	-0.22135343
108	0x3dc04e65	0.093899526
109	0xbc4646b8	-0.012101822
110	0x3be27287	0.0069106254
111	0xbe4a5216	-0.19757876
112	0xbd9ffa4f	-0.078114145
113	0xbe856687	-0.26054785
114	0xbe37f6e5	-0.17965277
115	0xbe45283f	-0.19253634
116	0x3d323e97	0.04351672
117	0x3d038cf9	0.032116864
118	0xbd4ad451	-0.049518887
119	0xbd428880	-0.047493458
120	0x3ee091d9	0.43861273
121	0x3e0dba5b	0.1384062
122	0xbd99b559	-0.075052924
123	0x3deae084	0.11468604
124	0x3df178d9	0.11790628
125	0x3bb67e00	0.0055692196
126	0xbd8d3f6a	-0.06896861
127	0x3c812209	0.0157633
128	0x3e9f2d17	0.31089088
129	0x3d3b3687	0.0457063
130	0x3ee87436	0.45401162
131	0x3e8e7ded	0.2783045
132	0x3e42c2df	0.1901965
133	0x3e0d8aba	0.13822451
134	0x3e46dea0	0.19420862
135	0xbe357cb0	-0.17723346
136	0x3ea5587b	0.32294068
137	0x3d5a2350	0.053256333
138	0x3e43673b	0.19082348
139	0x3e188901	0.14896013
140	0x3e571fcf	0.21008228
141	0x3d7fc27d	0.062441338
142	0x3f0082b0	0.50199413
143	0x3eb5a3aa	0.35476428
144	0x3e67cf07	0.22637568
145	0x3de80e01	0.11330796
146	0x3e6bb344	0.23017603
147	0x3e7859ce	0.24253008
148	0x3e9ddc8f	0.30832335
149	0x3e95b7a9	0.29241684
150	0xbd16d65c	-0.036825523
151	0x3e039690	0.12850404
152	0x3d1daa7e	0.038492672
153	0xbdba4439	-0.09095044
154	0x3dd5db21	0.10442186
155	0xbd6907f1	-0.05689234
156	0x3eb69ef5	0.3566815
157	0xbde3f489	-0.11130626
158	0x3e122d36	0.14275059
159	0x3e97c0ad	0.29639187
160	0x3ea70dcf	0.32627723
161	0x3d9ac9b1	0.07558001
162	0x3e5913b0	0.21198916
163	0x3e9cc635	0.3061997
164	0x3ce40f7b	0.027839413
165	0xbccaac2b	-0.0247403
166	0x3e9634d2	0.29337174
167	0x3df9109c	0.12161371
168	0xbd88a854	-0.06672731
169	0xbd8e6fb6	-0.06954901
170	0x3e9fe18f	0.31226775
171	0x3e8392a9	0.2569783
172	0x3e3e61e3	0.18592028
173	0x3e258390	0.16163468
174	0x3ec19d5a	0.37815362
175	0xbc1d573e	-0.00960332
176	0xbbf8dd6c	-0.007594755
177	0x3e94125d	0.2892026
178	0x3ea1d4d2	0.31607682
179	0x3eaa77f8	0.33294654
180	0x3eb2b69a	0.3490494
181	0x3e25f2de	0.16205928
182	0x3edde4a0	0.4333849
183	0x3df18330	0.117926
184	0xbe117e87	-0.14208423
185	0x3dd04534	0.101694494
186	0x3ddc74c4	0.10764459
187	0x3b229179	0.0024805947
188	0xbde273e5	-0.110572614
189	0x3e0543eb	0.1301419
190	0x3d20487a	0.03913162
191	0xbd98d662	-0.07462765
192	0x3ed1073f	0.4082584
193	0x3e6a5491	0.22883822
194	0x3eeb2717	0.4592826
195	0x3ecd1b19	0.40059736
196	0x3ebd1320	0.36928654
197	0x3efb1ef8	0.49047065
198	0x3e8d984c	0.27655256
199	0xbe82b3a7	-0.2552769
200	0x3ec52cda	0.38510782
201	0xbe516e64	-0.20452267
202	0x3d8ef339	0.06979985
203	0x3d9f6e02	0.07784654
204	0x3efd61aa	0.49488574
205	0x3d871468	0.06595689
206	0x3efd3012	0.49450737
207	0x3ee6373e	0.4496402
208	0x3ed4cd5c	0.41562927
209	0x3da15035	0.078766264
210	0x3ec6454e	0.3872475
211	0x3e3fcd7e	0.18730733
212	0x3ed136da	0.4086216
213	0x3e4f752c	0.20259541
214	0xbd8c834f	-0.068609826
215	0xbd438c17	-0.047741022
216	0x3e9e7abf	0.30953023
217	0x3c8d65af	0.0172604
218	0x3ce21271	0.027596684
219	0xbd266c65	-0.040630717
220	0x3e844bbc	0.2583903
221	0xbe45e301	-0.19324876
222	0x3ea03f3f	0.31298253
223	0x3e8f8c44	0.28036702
224	0x3e74cfe3	0.23907427
225	0x3e9ca32f	0.3059325
226	0x3e6d2afd	0.2316093
227	0x3e6c2e57	0.23064552
228	0x3d904587	0.07044511
229	0x3bc18e4c	0.0059068557
230	0x3ea100a1	0.31445792
231	0x3dc7ee37	0.09762233
232	0x3d51570a	0.051108398
233	0xbe4e9073	-0.2017229
234	0x3e0b5b29	0.13608994
235	0x3f00fdda	0.50387347
236	0xbca620b4	-0.020279266
237	0x3e9c7432	0.305574
238	0xbd9baa4f	-0.07600843
239	0x3c6865a1	0.0141843865
240	0x3ce06be7	0.027395202
241	0x3e85b4ae	0.2611441
242	0x3e8fd8f2	0.28095204
243	0x3f049f1d	0.5180529
244	0x3eb76058	0.35815692
245	0x3d4bbe2c	0.04974191
246	0x3e0534e7	0.13008462
247	0x3d1a686e	0.03769725
248	0xbe34d3f4	-0.17658979
249	0x3de16e56	0.11007373
250	0x3dece4b1	0.11567057
251	0xbcfe4f24	-0.031043597
252	0xbcdb18bd	-0.026745195
253	0xbd9fc8f4	-0.07802001
254	0xbcb1b39c	-0.02169209
255	0x3d88ed92	0.06685938

layer2.0.bias f4 [32]
0	0xbe097267	-0.13422547
1	0x3f13f80f	0.5780038
2	0xbd5070d2	-0.050888844
3	0xbe0a57e1	-0.13510086
4	0x3edf3610	0.43595934
5	0x3d0092b6	0.031389914
6	0xbd73fb60	-0.0595659
7	0xbdbbcfe2	-0.0917051
8	0xbd91f5e4	-0.07126978
9	0xbd5a3674	-0.053274587
10	0xbe2158eb	-0.15756576
11	0xbdbffab2	-0.09373988
12	0x3ebcd695	0.36882463
13	0x3ec73804	0.38909924
14	0xbd97d32a	-0.07413323
15	0xbdcd7840	-0.100327015
16	0x3ebeec82	0.37289816
17	0xbdbcb8d2	-0.09214939
18	0x3f16b975	0.58876735
19	0xbdaf93a5	-0.08573083
20	0xbdb50a44	-0.08839849
21	0xbda259c6	-0.07927279
22	0xbc6b6484	-0.0143672265
23	0xbe228f74	-0.15875036
24	0x3eceb09b	0.40369114
25	0x3eb8e6f1	0.36113694
26	0x3f033815	0.5125745
27	0xbe1ac1f6	-0.15113053
28	0xbd031e54	-0.032011345
29	0x3eab9959	0.33515432
30	0xbd8e5f7d	-0.06951807
31	0xbda5b03d	-0.080902554

layer3.0.weight f4 [16, 32]
0	0x3e2379a8	0.15964377
1	0xbe5c9088	-0.2153951
2	0x3de224fb	0.1104221
3	0x3f1c3e12	0.6103221
4	0x3cac5c87	0.021040214
5	0x3e04d5ee	0.12972233
6	0x3e73e62b	0.23818271
7	0x3e4f8503	0.20265584
8	0x3d8d437b	0.068976365
9	0x3d96c3b8	0.07361549
10	0x3df19c5a	0.117974
11	0x3de4d0bd	0.11172626
12	0x3e94ecbe	0.2908687
13	0xbe26c0d4	-0.16284496
14	0x3dd6d351	0.10489524
15	0x3e649891	0.22323824
16	0xbd631099	-0.05543575
17	0x3f12412e	0.57130706
18	0xbd4a5ea0	-0.049406648
19	0x3dd29d89	0.10283954
20	0x3dbc32a5	0.09189347
21	0xbd90503f	-0.07046556
22	0x3e045c66	0.12925872
23	0x3ddce0ee	0.107850894
24	0x3db0a570	0.08625305
25	0xbd623ded	-0.05523484
26	0xbe541d0b	-0.20714204
27	0x3ed8356a	0.42228252
28	0x3ef6922b	0.48158392
29	0xbe088adc	-0.1333422
30	0x3e3396ac	0.17537946
31	0xbd6ad906	-0.057335876
32	0xbd9d7d0c	-0.076898664
33	0x3ed8d390	0.4234891
34	0xbdd202c0	-0.10254431
35	0xbd6d44e5	-0.05792703
36	0x3f03fbce	0.515561
37	0xbd9bdffe	-0.076110825
38	0xbda627f1	-0.08113087
39	0xbd7979c7	-0.06090715
40	0xbe57a9b0	-0.21060824
41	0xbe0e75c6	-0.13912115
42	0x3cd42f95	0.025901595
43	0xbd062248	-0.032747537
44	0x3da4bd7e	0.08043955
45	0x3ed59354	0.41713965
46	0xbcb691b2	-0.02228627
47	0xbd8fca40	-0.07020998
48	0x3ec34622	0.38139445
49	0xbdf23307	-0.11826139
50	0x3ece6acb	0.40315852
51	0xbe15c718	-0.1462673
52	0x3c1a0f35	0.00940304
53	0x3af3b227	0.0018592522
54	0x3d3b07a5	0.045661587
55	0xbca8bb3d	-0.020597095
56	0x3e0b8b47	0.13627349
57	0x3ec5fbff	0.3866882
58	0x3ef4b62d	0.4779524
59	0xbd37a393	-0.04483373
60	0xbd92f8d8	-0.071763694
61	0x3e9f6210	0.31129503
62	0xbdac69d1	-0.084186204
63	0xbd92c82c	-0.07167086
64	0x3df74da0	0.12075353
65	0xbe348196	-0.17627558
66	0x3e8a7132	0.27039486
67	0x3f15f848	0.5858197
68	0xbca4a92c	-0.020100199
69	0x3d518918	0.051156133
70	0x3c6b3dad	0.014357966
71	0x3e77c305	0.24195488
72	0x3e23927b	0.15973847
73	0x389563c8	7.123459e-05
74	0x3d33ac31	0.043865386
75	0x3e2f0457	0.170915
76	0x3e6182ba	0.22022524
77	0xbcf1bf7d	-0.029510254
78	0x3e09e99d	0.13468023
79	0x3e13b4e6	0.14424476
80	0x3ca3c8d6	0.019993227
81	0x3f069ae5	0.525801
82	0xbe8722f2	-0.2639385
83	0x3e336e9b	0.17522661
84	0x3e065add	0.13120599
85	0x3e029bca	0.12754741
86	0x3e17e8f0	0.14834952
87	0x3e3b5b3d	0.18296523
88	0x3d39354b	0.04521684
89	0xbe40fc3d	-0.18846221
90	0xbe6d188b	-0.23153894
91	0x3eccbcd6	0.3998782
92	0x3ec07480	0.37588882
93	0x3c8405f1	0.016116114
94	0x3e37c63a	0.17946711
95	0x3dea8793	0.1145164
96	0xbd851920	-0.06498933
97	0x3ea08306	0.31349963
98	0xbdb41b4a	-0.087942675
99	0xbd1bcf3d	-0.038039435
100	0x3eeb2a82	0.45930868
101	0x3cb335db	0.021876266
102	0xbc2f9ea0	-0.0107189715
103	0x3cca1a8a	0.024670858
104	0xb99bfda4	-0.0002975288
105	0xbe21fd51	-0.15819289
106	0xbceadfa0	-0.028671086
107	0xbdc45a1a	-0.09587498
108	0x3e298dbd	0.16557975
109	0x3e82fb2c	0.25582254
110	0x3d8d8fc1	0.069121845
111	0xbe700b02	-0.23441699
112	0x3ea581bb	0.3232554
113	0xbe091519	-0.13386954
114	0x3f01581b	0.50525063
115	0xbdcefc39	-0.101067014
116	0xbdf2689e	-0.118363604
117	0x3bf04391	0.0073322733
118	0x3e2979b7	0.16550337
119	0xbe077559	-0.13228358
120	0x3e4dcbb5	0.2009724
121	0x3eed6d85	0.4637262
122	0x3e68866a	0.22707525
123	0xbad3d9e7	-0.0016162962
124	0xbe00d969	-0.12582935
125	0x3eb570d1	0.35437635
126	0xbdf6756b	-0.120341145
127	0xbe151b72	-0.14561251
128	0x3d936cad	0.07198463
129	0xbd9f7c2e	-0.07787357
130	0x3eb4d8b6	0.35321587
131	0x3f57c875	0.8429025
132	0xbe2160e8	-0.15759623
133	0x3dbd4657	0.09241932
134	0x3e1f2fcb	0.15545575
135	0x3ea85ddb	0.32884106
136	0x3e0b8d78	0.13628185
137	0x3dc7b383	0.09751036
138	0x3e6627c9	0.22476114
139	0x3e5fcca8	0.21855414
140	0x3e7dd0cf	0.24786685
141	0xbc65e838	-0.014032416
142	0x3e2b6dc6	0.16741094
143	0x3e50c59c	0.20387882
144	0xbdb73eb4	-0.089475065
145	0x3f29e5f5	0.6636651
146	0xbe81ae70	-0.25328398
147	0x3d0177b4	0.0316083
148	0x3e459fcb	0.19299237
149	0x3e4db141	0.20087148
150	0x3dd0c47d	0.10193727
151	0x3e3a8769	0.18215717
152	0x3e0731b6	0.13202557
153	0xbe39c439	-0.18141259
154	0xbda467ad	-0.08027587
155	0x3f0206f8	0.50791883
156	0x3f18d907	0.5970616
157	0xbcd811ce	-0.026375677
158	0x3e607da0	0.21922922
159	0x3d6675db	0.05626474
160	0x3e401c4e	0.18760797
161	0xbe702bb7	-0.23454176
162	0x3ea1d3ed	0.31607
163	0x3f43126e	0.76199996
164	0xbe17fe51	-0.14843108
165	0x3e33cb49	0.17558016
166	0x3c724ba7	0.014788545
167	0x3e8f840f	0.2803044
168	0x3e0ce5a7	0.1375948
169	0x3e19cc75	0.150194
170	0x3e5183ee	0.20460483
171	0x3e5e164a	0.2168819
172	0x3deb527c	0.11490342
173	0x3ad0dd94	0.0015935176
174	0xbd6ee2d0	-0.058321774
175	0x3e0106a4	0.1260019
176	0xbba072c2	-0.0048964927
177	0x3ed4516a	0.41468364
178	0xbdf921ab	-0.12164625
179	0x3e786c39	0.24260034
180	0x3d8feca8	0.070275605
181	0x3e404ce5	0.18779333
182	0x3dee0330	0.11621702
183	0x3e33c0b0	0.17553973
184	0x3e763290	0.24042726
185	0xbe3ce281	-0.1844578
186	0xbe943213	-0.28944454
187	0x3ebc9669	0.36833504
188	0x3eb4378d	0.35198632
189	0xbd7b3b1d	-0.06133567
190	0x3e887966	0.2665512
191	0xbd9199fa	-0.07109447
192	0xbe79eb21	-0.24406101
193	0x3ed44c7b	0.414646
194	0xbdc1b407	-0.094581656
195	0xbdb35799	-0.08756942
196	0x3f1f8f20	0.62327766
197	0x3cc10f8a	0.02356698
198	0xbe04188e	-0.12899992
199	0xbe164712	-0.14675549
200	0xbe8a6671	-0.27031282
201	0xbdf65825	-0.12028531
202	0xbdadbb9c	-0.08483049
203	0xbe936a3b	-0.28791985
204	0x3e7ca88c	0.2467367
205	0x3ecf1553	0.40445957
206	0x3996f313	0.00028791334
207	0xbe4f9993	-0.20273428
208	0x3ec71383	0.38882074
209	0xbe0a31ba	-0.13495532
210	0x3edda612	0.43290764
211	0xbebacd4d	-0.36484757
212	0xbe84c203	-0.2592927
213	0xba106016	-0.0005507482
214	0xbcf85de9	-0.030318217
215	0xbdde2d72	-0.10848512
216	0x3e8793f4	0.26480067
217	0x3efe13bc	0.4962443
218	0x3e795a18	0.24350774
219	0xbe578eaf	-0.21050523
220	0xbeb3d16c	-0.35120714
221	0x3e8702c2	0.26369292
222	0xbe9e770b	-0.30950198
223	0xbe666149	-0.22498049
224	0xbdd1bba3	-0.10240867
225	0x3ed168a8	0.4090016
226	0xbdd0fbd8	-0.102042854
227	0xbd3894a9	-0.04506365
228	0x3eaea539	0.3411043
229	0xbc9e5bec	-0.019330941
230	0xbd63bbfe	-0.055599205
231	0xbe2f5d84	-0.17125517
232	0xbe722181	-0.23645593
233	0xbe424e77	-0.18975244
234	0xbdfde0e6	-0.123964116
235	0xbe38c1cb	-0.18042676
236	0x3e3b0eb7	0.18267332
237	0x3ebc4aab	0.36775717
238	0x3c23f816	0.010007879
239	0xbe024815	-0.1272281
240	0x3e8b3399	0.27187803
241	0xbe28dc86	-0.16490373
242	0x3f07e32c	0.5308101
243	0xbe267388	-0.16255009
244	0xbd12953d	-0.035786856
245	0x3d3bf9a6	0.04589238
246	0x3d905d2d	0.07049022
247	0xbd384914	-0.044991568
248	0x3e4d04cb	0.2002136
249	0x3e94ff4b	0.29101023
250	0x3f05fc58	0.5233817
251	0xbcb94b2d	-0.022618854
252	0xbe2513d1	-0.1612084
253	0x3e1534f0	0.14570975
254	0xbe4c3278	-0.19941127
255	0xbe0cdadc	-0.13755363

layer3.0.bias f4 [16]
0	0xbe449087	-0.19195758
1	0x3ef560ec	0.47925508
2	0xbe091565	-0.13387068
3	0x3f002a41	0.50064474
4	0xbded5a14	-0.11589447
5	0xbdd50172	-0.10400666
6	0x3f266157	0.6499228
7	0x3f281c21	0.6566792
8	0xbe5e07a3	-0.216826
9	0xbe018cc4	-0.12651354
10	0x3f0b5113	0.54420584
11	0x3f45ada6	0.7721809
12	0xbe0a4dc1	-0.13506223
13	0x3f57756c	0.84163547
14	0xbd77b855	-0.060478527
15	0xbe5746a9	-0.21023048

output_layer.weight f4 [1, 16]
0	0x3de7a529	0.11310799
1	0xbf27fe23	-0.65622157
2	0x3df4e2a2	0.11957289
3	0xbf3ab01a	-0.7292496
4	0x3d9ab93d	0.07554863
5	0x3dd639da	0.10460253
6	0xbf359b13	-0.7093975
7	0xbf3d0f17	-0.7385115
8	0x3e42b309	0.19013609
9	0x3e0f507f	0.1399555
10	0xbf27613d	-0.6538275
11	0xbf3bac61	-0.73309904
12	0x3e0589f9	0.13040914
13	0xbf374c85	-0.71601135
14	0x3dbf3f63	0.09338262
15	0x3e21c6a0	0.15798426
