diplomDjango/models/model.pth (torch, 18344 bytes, 7 tensors)

layer1.0.weight f4 [64, 18]
00000000: 4a18 f1bc dfa1 b4be f5b3 06bf 65e0 7c3e
00000010: 1eba 993e f492 ca3e 0349 873d c5d5 7b3e
00000020: aeec 5cbe 2b26 d03b 43d6 4bbe d628 8b3d
00000030: dbfc a7bd 8efa 6bbd 4d28 9dbe 5b42 1a3e
00000040: ad19 ddbd 176a e63d a899 24be da55 50bd
00000050: 4e83 6f3e 446b 36be d8de b83e 9a4e 90bb
00000060: 04b0 24be 436a 283e a6fc 50bd 656f 8abe
00000070: 226d cfbe 18f8 6e3d cc8c 7c3e 276a 85bd
00000080: bc8c 463e 306a 26be 4067 b6be 48ac a2be
00000090: f014 93be 0645 b33d ed43 833e 285f 30be
000000a0: 5475 a03e 3247 b03e 9880 33be 63c3 2f3e
000000b0: 45b2 c93d 18ef 1abc 0b87 15be a399 393d
000000c0: 7c78 b1bd c0f8 70be 2fc2 043e 4211 6bbc
000000d0: 9b45 433b ba19 ac3d e814 e9be b8ca 4b3e
000000e0: f6c4 8e3b 4679 9d3c 017f 8e3d 7a7c 113e
000000f0: d55c 533e cc10 4b3e 66e1 383e dafd 28bd
00000100: 236f 893d 17ba a83e fb96 fb3d 16b1 7dbc
00000110: 4d4d 7fbd 5c9b 9d3e 26f6 bbbd 5434 153e
00000120: 074e e7bc 0ac2 173e e8a8 a83e eb02 8bbe
00000130: 2695 9cb7 fb10 4a3d 06c7 9c3e 7dce 9dbe
00000140: a52b 5d3d 9302 c1bc c836 273e d803 4c3e
00000150: f6f1 333e 5896 213e c028 9b3e 2140 13be
00000160: 5ef6 e73d 1bdc 423e 96c1 76be 139f d8bb
00000170: e94e 30be e357 61be e766 2b3e 6007 ce3d
00000180: 7826 43be 3b93 dd3d ee6e 45be 2694 c5bd
00000190: 5eab 8dbe 16f6 333e d75f 9e3c 6c57 f9bd
000001a0: 3a84 ef3c 449d 81be aaed 583b da0f d7be
000001b0: f994 e73d b17f 5a3e 6dfa e03e 02a5 c43c
000001c0: 5c1f 603b 72a8 903d 9c8f febc b965 8d3c
000001d0: 5dd6 4dbd d325 993b 9097 2dbe 8004 5b3e
000001e0: 3b51 553e 5d37 9fbe 6089 8e3e 5010 76be
000001f0: b645 7bbe 5fda ea3d c2c0 0c3d 6acf 203e
00000200: b7ad 0f3e 3992 84be 90db 823d 3ced 3e3e
00000210: 9ebd 3cbc cb57 aabc 2387 a2be 821b 9a3e
00000220: ce8e f8bc 7532 4dbe f303 cc3b 66d8 72be
00000230: 5b38 a93c 0d8a 56be 6c60 8fbd b4b8 0fbe
00000240: 5ab7 7ebe 57a3 17bd de58 823e 9c03 0e3e
00000250: 7853 c43d 7351 953e 77ef 833d 6d2e e4bd
00000260: 8beb a4be 9090 65be 6238 cbbc 1a00 86bd
00000270: 727d a2bd ca75 89be 5e39 863e 7c8d 52be
00000280: e700 c9bd b418 2bba 34d6 8dbe f813 3cbe
00000290: 6e8b eebd 428f 333e e5f0 eb3e 2fd1 bebb
000002a0: 9093 f23d 4fe2 3c3e d7fe 5d3d 7fcb 4a3e
000002b0: 5199 83bd 21b7 9a3d 4c98 49bd 27ff 5abe
000002c0: 1a9e 12bd 0e28 8e3d 3864 34be 8056 a3be
000002d0: ef60 04bf 86e3 c1bd beb2 fcbb e7c9 41be
000002e0: 5a64 273e 052f 4b3e 2eac de3d 170d 66be
000002f0: f3f5 0ebe 94dd 143e f661 ef3d d398 46be
00000300: 2967 4abe b751 41be 3563 203e 088f d33d
00000310: 8a77 cbbd 570c 88bd 6235 77bd 758d bfbc
00000320: 51c2 98be 7b8e 103e dfe1 fb3e b56c 963e
00000330: 3b02 943d 276a 32bd 67da 383d b910 ca3d
00000340: afa2 49bd eb0b 46be 1269 04be d02a 1fbd
00000350: 3fb3 1ebe 3603 093e 18ca df3d e41b 4cbe
00000360: 5741 a83d cb05 50bf c3f0 17bf eedb c83e
00000370: 5d0b 983e 956f 983e a99e 0bbd ea61 103e
00000380: b24c 52be ef3c 79bd e57f 51be 1095 17be
00000390: fd58 9e3d c951 a0bd b382 47be efb6 073d
000003a0: 4b93 813d 4ac2 38bd a067 d0bd c174 383e
000003b0: 15a8 2d3e d106 183e a24f 8c3e 4bd1 8d3e
000003c0: f18a cebd 89ff 48be 0d51 00be 9670 47be
000003d0: d402 1bbe e38a b23d 5e25 1fbc 3f5e 96bc
000003e0: fdca f438 f14b 253b ef2e 553d ffb6 87be
000003f0: 324e 8e3e 2373 07bf 83a3 d5be fe51 df3e
-0.029430527 -0.35279748 -0.5261834 0.24694975 0.3002481 0.3956524 0.06605723 0.24593265
-0.21574661 0.006352206 -0.19905953 0.06794898 -0.08202525 -0.057611994 -0.3069481 0.15064375
-0.10795913 0.11250704 -0.1607424 -0.050863124 0.23389933 -0.17814356 0.36107516 -0.0044039013
-0.1608277 0.16446786 -0.051022194 -0.27038112 -0.4051295 0.05834207 0.24663085 -0.065143876
0.19389623 -0.16251445 -0.35625648 -0.31772065 -0.28726912 0.087533996 0.2563776 -0.17223799
0.31339514 0.34429318 -0.17529523 0.17164378 0.09848455 -0.009456418 -0.14602296 0.045312535
-0.08665559 -0.2353239 0.129647 -0.014347376 0.0029796127 0.084033445 -0.45523763 0.1990155
0.0043569757 0.019222867 0.06957818 0.1420764 0.20640881 0.19830626 0.18054733 -0.041257717
0.06710651 0.32954475 0.122846566 -0.015484115 -0.06232958 0.30782592 -0.091778085 0.14570743
-0.028235449 0.14820114 0.32941365 -0.27150664 -1.8666102e-05 0.0493326 0.30620593 -0.308216
0.0539967 -0.023560798 0.16329491 0.19923341 0.1757277 0.15780008 0.30304527 -0.14379932
0.11326288 0.19029276 -0.24097285 -0.00661076 -0.17217602 -0.22006182 0.16738473 0.100600004
-0.19057643 0.108190976 -0.19280598 -0.09647398 -0.27669805 0.17574343 0.01933281 -0.121748775
0.029237855 -0.25315297 0.0033100643 -0.4200428 0.11307711 0.21337773 0.4394106 0.024004463
0.003419838 0.070633784 -0.031074338 0.01726042 -0.05025326 0.0046736985 -0.16952348 0.21388435
0.20831768 -0.31096926 0.27839184 -0.2402966 -0.24538311 0.11467432 0.034363516 0.15704122
0.1403111 -0.2589281 0.063895345 0.18645185 -0.011519818 -0.020793816 -0.31743726 0.30099112
-0.030341532 -0.20038779 0.0062260567 -0.23715362 0.020656755 -0.209511 -0.07000813 -0.14035302
-0.2487463 -0.037021007 0.25458425 0.13868564 0.09586233 0.29163703 0.06442159 -0.111416675
-0.32210955 -0.22418427 -0.024807159 -0.06542988 -0.07934083 -0.26847678 0.26215643 -0.20561785
-0.09814625 -0.00065268134 -0.27702487 -0.18366992 -0.11647688 0.17535117 0.46082225 -0.0058232765
0.118445516 0.18445705 0.054198112 0.1980419 -0.06425727 0.0755446 -0.049217507 -0.21386395
-0.03579531 0.069412336 -0.17616355 -0.31901932 -0.5171041 -0.09467225 -0.0077117374 -0.18924676
0.16346875 0.19842155 0.108726844 -0.22465931 -0.1396101 0.1453765 0.116886064 -0.19394235
-0.19765915 -0.18878828 0.15662844 0.103300154 -0.0993491 -0.06642979 -0.060353644 -0.023382882
-0.29835752 0.14116852 0.49195763 0.29379812 0.07226988 -0.043558266 0.04513016 0.09866471
-0.049227413 -0.19340484 -0.12930706 -0.03885919 -0.15498064 0.13380131 0.10927218 -0.19932514
0.082155876 -0.8125884 -0.5935175 0.39230293 0.2969617 0.2977263 -0.034086857 0.14099851
-0.2053707 -0.060849126 -0.20458944 -0.14802957 0.07731817 -0.07828099 -0.19483452 0.033133443
0.06326922 -0.045107163 -0.10176015 0.18013288 0.1695865 0.1484635 0.27404505 0.2769874
-0.10085095 -0.19628729 -0.12530918 -0.19476542 -0.15137798 0.08717897 -0.009713499 -0.018355487
0.00011672636 0.0025222267 0.052046712 -0.26506802 0.27794033 -0.5291006 -0.41726312 0.43617243

layer1.0.bias f4 [64]
00000000: 4a48 473c 7922 af3c bb93 f83c 1b36 0b3d
00000010: e669 a93d 946b 5e3c 4aac 213d 30de 833c
00000020: 2a66 a3bc f944 5b3d bead 233c 3308 cc3c
00000030: bde2 583d ccbd d33c aec2 533d 9721 32bb
00000040: e155 c03c 9517 a43d 56fe db3c 5d76 f23e
00000050: 9d92 0a3c 48c7 cf3c c7d1 c83c 71fa 8abb
00000060: 5e62 523d 1b0a 043e 851a 143d 8461 803e
00000070: bf0b abbc e99f 463e 9bbe 9ebc df2a 8c3c
00000080: 5318 993d dea3 823e 9c89 21bc 208d d8bc
00000090: 0e11 603e a1b6 0ebd 3698 a13d 9658 b23c
000000a0: f396 543e ccb4 c23d 904f 293d a531 01bc
000000b0: 3810 e03d 27f7 453d dfb2 c7bb d4b3 213d
000000c0: 6636 193e 741c 313e 6c00 b73d 0a00 be3e
000000d0: 60b9 b33d 8829 c2bc 7a5d e8bc 0602 ec3c
000000e0: 98b3 c5bc fa14 c03d d2bd 01bc 3139 4a3e
000000f0: 5963 6e3d 24a8 db3c 286a b23e 8891 0a3d
0.012163231 0.021378743 0.03034388 0.033987146 0.08272152 0.013575453 0.03947095 0.016097158
-0.019946177 0.053532574 0.009990154 0.024906253 0.05295061 0.025847338 0.051699333 -0.0027180666
0.02347845 0.080123104 0.026854675 0.4735593 0.008457807 0.02536358 0.024514092 -0.0042412807
0.05136334 0.1289448 0.036158103 0.250744 -0.020879624 0.19396938 -0.019377997 0.017110286
0.074753426 0.25515646 -0.009859469 -0.026434481 0.21881506 -0.034842137 0.0789036 0.021770757
0.20760708 0.095071405 0.041335642 -0.007885371 0.109405935 0.048331406 -0.006094321 0.039478138
0.14962158 0.1729601 0.08935627 0.37109405 0.08775592 -0.023701444 -0.028364886 0.028809559
-0.024133489 0.09379001 -0.007918792 0.1974838 0.058200214 0.026813574 0.34846616 0.033830196

layer2.0.weight f4 [32, 64]
00000000: c40d 31be eedf ef3d 29ef f7bd 6c7e 883e
00000010: e417 d33e 287e 323e 9d26 e23d fc08 033e
00000020: c037 fe3d d325 ae3d 362c 2f3e 2fdf da3d
00000030: 5d9f 33bd b67b c73d a1da 343c a862 2d3d
00000040: 8613 bb3c 9b88 6a3e 47e5 6b3e e271 4a3e
00000050: 1f7c 4a3e 3b41 013e 4ade 523e 22b8 873d
00000060: 7c5d 803e 67b9 a43e 06b3 e43b 99b7 473e
00000070: dd31 523c f305 a13e fd3d cf3d 257b 8abd
00000080: a2cd f1bd ed2e 28bd 64f1 af3d 8963 90bc
00000090: b731 943e 5994 a63d eeb9 97bd a050 ac3d
000000a0: d6d9 6fbe bf24 e7bc a782 31be ebb0 283e
000000b0: 74a6 cebb 54e4 543d 8093 fc3d 1b81 183c
000000c0: 544c 3b3d 16b8 85bd 6777 b23b feb5 8f3d
000000d0: a97f c23c 58a1 04bd b98f 2abc 5854 00bd
000000e0: 50c9 903d da81 79be 92fc f03d 5edc 503e
000000f0: 11eb 21bd 3f16 5e3d 36a8 1e3e 1b41 3d3e
00000100: b3d9 c8bd 2170 37be ce10 18be 6ea9 30be
00000110: 9dd3 7cbd 23b9 b4bc 5d4a 29be f1f2 3ebe
00000120: 0f2b 8dbd d5da 1fbe 44cb a0bd 319b e0bd
00000130: ff35 bebd e267 afbd 57a0 84bd dd16 163c
00000140: c5b8 26be ed5e cbbd 4572 0ebe 0eb6 4fbe
00000150: 3faf 42be 85e0 34be 4d8b 44bd ffdc 32be
00000160: da96 64be 19c0 02be 5574 3abe fd79 07be
00000170: 556e 33be d368 28be 79cc d6bd 1b2e 0ebe
00000180: 6ce7 fdbd 2e02 91bd 17e3 e9bd 1dea 9c3c
00000190: d11b 78be 5cac 3fbd 2c10 58bd b265 cebd
000001a0: 6a53 08bd a17d d0bc 02c4 373c 295f 033c
000001b0: f36d e0bd 8e5d febd b8cd c7bc 4fbd 8539
000001c0: 09f0 053d 4f36 39be 7542 6ebe b0f7 113e
000001d0: ec1a 6f3d 1013 af3c 5fda abbb c76e 3dbd
000001e0: bcf6 17bc a59b 32be 45e0 dabd a0b7 b13b
000001f0: db55 c9bd 16bc 793d aa11 a1bd 695a 59be
00000200: f8bc bbbd 17a9 06be 35dc 633d 2d70 32bd
00000210: 32b3 99bd 1570 a23d 75ac 63bd 95d0 16be
00000220: 50bf f5bd 4af4 bf3d 8376 433c 0843 6739
00000230: 3507 cd3d 6894 a5bd 8693 c93c 022c 92bd
00000240: 81d3 a8bb ed97 543d 7d98 cebc 189d 2f3d
00000250: dd45 a1bd bb85 c8bc b02f bcbd 2f66 a7bd
00000260: 3806 42be 46b8 3fbd bd6c d2bc ae49 32bc
00000270: e82c 19be a4f7 7dbe 8dd6 513d 626b b03c
00000280: 8f65 e83d 1fb7 823d 2ad9 313d f994 a53d
00000290: 9434 72bd 4ccb 0fbe a50d 6b3e 137a 83bd
000002a0: 74f7 2a3e bb7a bfbc 3a4c 2f3e c186 973c
000002b0: 2145 1b3e ec2c f83d c3f3 0fbe a262 b13d
000002c0: 271c 6cbd f63c 073e f4c6 e5bc 58e8 d43d
000002d0: ffd7 363e 4fc3 b23d 07cd 2c3d 24c4 303d
000002e0: 9c70 febd d12a d63d e740 1ebe 08d1 023e
000002f0: 7554 fa3d 9c89 5a3d 62da fdbb aaa1 e1bd
00000300: 1bd6 493d 6b7c 3e3d 4f8a 8f3d 93af 0dbe
00000310: 511b d0bd 5385 b23c 7887 cfbd dbad ee3b
00000320: 61b4 e23c 92d7 9c3d 5da9 8cbd 8782 3abd
00000330: 2972 a73e 73b2 12be 76d8 e73d 8e6b b93b
00000340: 6058 2c3d 2088 b6bc c087 d73a 10a0 5d3e
00000350: 7735 9c3d ef69 4abd bcba e1bc e723 c2bd
00000360: 09d0 2ebd 94d2 debd b1c4 143c cdab f03d
00000370: d3f0 3abe c121 3bbe 4157 7dbc c139 1e3e
00000380: 4463 e63e 61a5 693e 821f 30be 8c07 df3c
00000390: 275b f1bd 3da7 0abe d145 5d3e a2a7 9abd
000003a0: f628 833e 97dd 243e 09db f83e 9aa6 ac3c
000003b0: 9b40 853e 5f82 2b3d b4b1 413d 263f c23d
000003c0: 1a86 803e d821 c33e 21dd 783e 5adb 533e
000003d0: b451 623e 6a4a 1dbd 45d0 7dbd 402a 76bd
000003e0: 3da3 a8bb 587a a43c 0a8b edbc 91c6 2d3e
000003f0: 84d0 333e ee7b a23d 548a 033e bf8c 993c
-0.17290407 0.11712633 -0.12106163 0.26658952 0.41229165 0.17430937 0.11042521 0.12796396
0.12412977 0.08503308 0.17106709 0.106871 -0.043853153 0.09740393 0.011038453 0.042330414
0.022836458 0.22903673 0.23036681 0.19770005 0.19773911 0.1262254 0.20592609 0.066269174
0.25071323 0.321727 0.006979349 0.1950363 0.012829271 0.3144985 0.10119245 -0.06761769
-0.118067995 -0.041060377 0.085909635 -0.017625587 0.2894418 0.08133764 -0.0740851 0.084138155
-0.23422942 -0.028215764 -0.17334996 0.16473739 -0.006306464 0.051975563 0.12332821 0.009308125
0.04572709 -0.06529252 0.005446363 0.07017134 0.023742514 -0.032380432 -0.010410243 -0.031330436
0.07069647 -0.2436594 0.11766924 0.20396563 -0.039530817 0.054220434 0.15493855 0.18481867
-0.09807148 -0.17913868 -0.1485016 -0.17252132 -0.061725248 -0.022060936 -0.16532274 -0.18647362
-0.068929784 -0.15610822 -0.0785127 -0.109671004 -0.09287643 -0.08564736 -0.06475895 0.0091607245
-0.16281421 -0.09930215 -0.13910778 -0.20284292 -0.19012164 -0.17663772 -0.04798441 -0.17467116
-0.2232317 -0.12768592 -0.1820844 -0.13230129 -0.17522557 -0.16446237 -0.10488219 -0.13884775
-0.12397656 -0.07080494 -0.11420267 0.019154603 -0.24229361 -0.046795234 -0.052749798 -0.100779906
-0.033282675 -0.02545053 0.0112161655 0.008018293 -0.10958471 -0.12420188 -0.024390087 0.00025508783
0.03269962 -0.18087123 -0.23267539 0.14254642 0.058375284 0.021371394 -0.0052445377 -0.046248224
-0.009275135 -0.17442186 -0.10687307 0.005423501 -0.09830829 0.06097039 -0.07864697 -0.21225895
-0.09166902 -0.1315044 0.055629928 -0.04356401 -0.07504882 0.07931534 -0.05558439 -0.14728005
-0.119993806 0.09372766 0.011930111 0.00022054848 0.1001114 -0.08084947 0.024606477 -0.071373
-0.0051521664 0.0519027 -0.025219196 0.042874426 -0.078746535 -0.02447783 -0.09188783 -0.08173787
-0.18947685 -0.046806596 -0.025686616 -0.010881824 -0.14958537 -0.24801499 0.051230002 0.02153558
0.11347496 0.06382584 0.043419994 0.08085055 -0.059132174 -0.14042395 0.22954424 -0.06419768
0.16695958 -0.023373952 0.17118922 0.018496873 0.1516309 0.12117943 -0.14057831 0.08661391
-0.057644036 0.13206849 -0.02804897 0.103958786 0.17855833 0.087286584 0.042187717 0.043155804
-0.12423822 0.10457385 -0.15454446 0.12775052 0.1222314 0.05335389 -0.0077469805 -0.11017163
0.049276453 0.046505373 0.07008802 -0.13836507 -0.1016146 0.02179209 -0.101332605 0.007283909
0.027673902 0.07658304 -0.06868241 -0.045534637 0.32704285 -0.14325885 0.113205835 0.0056585735
0.04207647 -0.022281706 0.0016443655 0.2164309 0.07627385 -0.049417432 -0.027554862 -0.09479504
-0.042678867 -0.10880008 0.009080098 0.117515184 -0.1825593 -0.18274595 -0.0154626975 0.15451719
0.4499761 0.22816993 -0.1719952 0.027225278 -0.11784964 -0.13540359 0.21608664 -0.07551505
0.25617188 0.16100155 0.4860461 0.021075536 0.26025853 0.04187238 0.04728861 0.09484701
0.2510231 0.38111758 0.24303104 0.20689145 0.2210148 -0.038401045 -0.0619662 -0.060098886
-0.0051464126 0.02007787 -0.028996963 0.16970278 0.17560011 0.07933794 0.12845737 0.01874387

layer2.0.bias f4 [32]
00000000: 6f84 cf3e 880f 38bd 1c50 c7bc 4a10 7f3d
00000010: 78db b53e 4a46 b73c 15f7 0ebd e5e8 3bbe
00000020: 67ea 963d baa6 853d 1f57 f43b 9f99 ab3e
00000030: 0dc9 97bd 2ca9 c4bd b88d 6cbd d25e 0b3c
00000040: a869 b83e a083 78bb d636 633d 9bf1 913b
00000050: 10c6 97bd 7819 c0bd ad82 2c3d aa17 cebd
00000060: e3b6 e9bc cae5 713c 135e 593d c5d4 82bd
00000070: a15d 38bd 1305 af3e 7018 1bbe cc7f abbd
0.40530726 -0.044936687 -0.024330191 0.062271394 0.35519004 0.022372384 -0.034903605 -0.18350561
0.073689274 0.06525941 0.0074566747 0.3351564 -0.07411394 -0.096025795 -0.05775234 0.008506494
0.3601811 -0.0037920251 0.055472218 0.0044538504 -0.07410824 -0.09379858 0.04211681 -0.10063107
-0.02852959 0.014764259 0.05306823 -0.06388239 -0.045011166 0.3418356 -0.15146041 -0.08373985

layer3.0.weight f4 [16, 32]
00000000: 0230 2dbe 2582 c9bd feff 1abb e942 923e
00000010: 33bb a0be 846e e7bd b91d 9fbc c456 013e
00000020: 07cf 2b3d 578d 7b3e 8f48 413e 2e63 2dbd
00000030: 90a5 053e ec00 373e c07b 303c 138e 7c3e
00000040: deba 91be 74ab 233e 5ba7 443e f014 bc3c
00000050: 9b30 c13d 773c 84bd 8caf cd3d 9eb8 f0bd
00000060: 7891 dfbd 88d1 203e dee2 07be eb2d e3bd
00000070: 55bf 2a3e 8764 f2bd 1e0e 363e 53f1 0c3d
00000080: c235 ae3e 3673 733d c2e3 52be 41db cd3d
00000090: 1adf ce3e 0ba5 20be 27fb f4bd 4a96 95bc
000000a0: ff27 09be 5cb4 d73c 3236 98bc 04aa 8a3e
000000b0: 5a39 f73d e553 6ebd 05ea 44bb a026 32bd
000000c0: 0d52 d63e 4207 d33d ca64 d6bb 63c8 7bbd
000000d0: eba1 8ebd 2ad5 01be af44 a6bd fa9f 383d
000000e0: 5129 343e d6fe 203d 2c22 60be 54aa 25bd
000000f0: e6c5 f9bd 0e72 d23e 7975 fdbd 387b 4cbe
00000100: 6ecd ad3e 4184 8c3e 806b e7bd 00c1 183d
00000110: 1fb3 d33e 053f e1bc 4792 693d 6207 7dbd
00000120: 283f 4a3e 77dd 333d 5575 bdbb d421 bb3e
00000130: 81cb 053e e1a4 9a3b af84 7c3d 455c d3bb
00000140: a345 a93e 1b16 283c ee6d b8bc 3ce1 8dbc
00000150: 3134 86bc da21 15bd b45c 193d b546 abbd
00000160: 5240 883e f22c 71bd b485 943d 6234 0bbe
00000170: 683d babc 8caa b83e 8641 b9bd 9efa 2abe
00000180: b16a 54be 6bd2 8fbc e568 383e 8d8b 5e3e
00000190: dae8 62be 56dc bbbd dd74 a7bd 6db6 1b3e
000001a0: 3900 17be 55e9 533e 4f58 bd3d 78c5 34be
000001b0: 2134 1fbe bc1f 96bd 744a 763d 1468 493e
000001c0: f9a5 d9bd 49da c93d 5e14 503e b881 1e3e
000001d0: 98a9 be3d 9f6a a63d f11b 0e3d ad12 043e
000001e0: 484f 34be 80f2 ef3d 644e 3abe bfa7 8ebb
000001f0: 441c e03c 3169 83be e8c4 a63d c0c5 8c3d
00000200: 06ad 33be 4651 94bd fc10 c63c 84cf 0dbd
00000210: 966f edbd 05c2 ec3c 13bb 00be fe56 03be
00000220: f343 1b3c 790c db3d 81bf 37be 96da 2ebe
00000230: 61f7 3cbe 3c64 073d 0078 923c 78e4 b83c
00000240: ffb9 5abe 2d41 db3d 9276 b63d 6821 b93c
00000250: cc66 813d 332b a73d 8b54 04bc 388e 9d3d
00000260: 69eb 0bbe 613e e13d ee84 82bd 22d7 9a3d
00000270: 1646 e2bd 53d3 3dbe c2f0 ae3d 9807 1e3d
00000280: 9ae0 88bd e43d a8bd 2bd5 a6bd ad06 703e
00000290: 3767 9fbd 3bc8 91bd ed04 d63d d138 033e
000002a0: edfc b93d 0907 863e 3fb6 333d 3304 8cbe
000002b0: c543 d2bd f824 133e 2677 823d 0a9a 193e
000002c0: 5c9a 40be 1b22 be3d 1f56 083e 3465 573e
000002d0: ace9 0f3e 9c9c ac3d 945a b03d 4fd8 67bd
000002e0: 902b 5bbe e7e6 bd3d dd75 c43d 636f bf3d
000002f0: f7ca 0a3e cf21 10be 7dd6 ae3d af9c 1fbc
00000300: b69b 38be e361 e53d bf09 dbbd ab8a 833e
00000310: e139 8abe b0df 72bd e1e1 893c d322 b53d
00000320: 9f87 20bd a6ec 913e c862 3dbd 1fdb 43be
00000330: 759c 23be 87bd 5b3c cc87 13be e7d3 473d
00000340: 3d68 94be 7822 b03d 76cc ae3d 7b83 73bd
00000350: 24fa bdbc e3ce 8b3c a16a 92bd 3bab 9bbc
00000360: fa4c a3bd 47b3 aa3d 4268 d5bd 14f2 a0bc
00000370: 77f2 08bd c31c 88bd cf0b b4bd c442 f33b
00000380: f342 05bd aa77 e63d 3462 cebd 8cf5 873e
00000390: fc9e 72be 5dde f83d 420f 073c 90f2 d1bc
000003a0: e344 e73d e743 c43e ecd9 513e ce81 48be
000003b0: b393 e3bd e0b4 ce3d 8a4b 063e 267d c83d
000003c0: d847 5dbd c18c 803e 38d5 663e a672 1a3e
000003d0: ca08 493e e537 b2bd 9679 f33d ce82 3ebc
000003e0: bc14 213d b30e afbd 7b1c 70bd 54b1 cbbd
000003f0: 1a50 1a3e f386 8ebe 49df ee3d 92bb 393e
-0.16912845 -0.09839276 -0.0023651118 0.28566673 -0.31392822 -0.11300376 -0.019423353 0.12630755
0.041945484 0.24565636 0.18875335 -0.042330913 0.13051438 0.17871445 0.010771692 0.24663572
-0.2846288 0.15983373 0.19204466 0.022959203 0.09433099 -0.06456845 0.100432485 -0.11753963
-0.10916418 0.1570493 -0.13270137 -0.110927425 0.1667455 -0.1183558 0.17778823 0.034409832
0.3402539 0.059436046 -0.20594695 0.10051585 0.40404588 -0.15687959 -0.11961966 -0.01826014
-0.13394164 0.02633112 -0.01858053 0.27082837 0.12071486 -0.058185477 -0.0030046713 -0.043493867
0.41859475 0.10304119 -0.0065427767 -0.0614704 -0.06964477 -0.12678972 -0.08118569 0.04507444
0.17593886 0.03930553 -0.21888036 -0.04044564 -0.12195949 0.41102642 -0.12375922 -0.19968879
0.33945793 0.27444652 -0.11299801 0.037293434 0.41347596 -0.02749587 0.057024267 -0.06177462
0.19750655 0.043912377 -0.0057818093 0.36549246 0.13065912 0.004719362 0.061649974 -0.0064502084
0.3306094 0.010259177 -0.022513356 -0.017319314 -0.016382309 -0.036409236 0.037441924 -0.08363096
0.26611573 -0.058880754 0.07252064 -0.13594201 -0.022734359 0.36067617 -0.09045701 -0.16697165
-0.20743825 -0.01755639 0.18008764 0.21732922 -0.22159138 -0.09172885 -0.08176587 0.15206309
-0.14746179 0.20694478 0.09245359 -0.17653453 -0.1554723 -0.073302716 0.060129598 0.19668609
-0.1062736 0.09856088 0.2032027 0.15479171 0.09309691 0.08125805 0.034694616 0.12897749
-0.17608368 0.11716175 -0.18193966 -0.004353493 0.027357228 -0.25666192 0.08143026 0.06873655
-0.17546472 -0.07242064 0.02417802 -0.03462173 -0.11593549 0.02890111 -0.12571363 -0.12826154
0.00947665 0.10695738 -0.17944147 -0.17075571 -0.18453743 0.033054575 0.017879486 0.02256988
-0.21360014 0.10705791 0.08909334 0.022598937 0.06318435 0.081625365 -0.008076797 0.07693142
-0.1366402 0.10998226 -0.063730106 0.075605646 -0.11048524 -0.18537645 0.08542015 0.03858146
-0.06683464 -0.0821493 -0.08146127 0.23440047 -0.077833585 -0.07118269 0.10450158 0.12814642
0.09081445 0.26177242 0.043874975 -0.27346954 -0.10266832 0.14369571 0.06370382 0.15000167
-0.18808883 0.09283849 0.13314103 0.210347 0.14053982 0.08428308 0.086110264 -0.056602772
-0.21403337 0.09272557 0.09592793 0.09347417 0.13553987 -0.14075397 0.08537004 -0.009741946
-0.18028149 0.11200311 -0.10695218 0.25691733 -0.26997283 -0.059295356 0.01683134 0.08844533
-0.03919184 0.2850086 -0.046236783 -0.19126557 -0.15977652 0.013411886 -0.14407271 0.04878607
-0.28985777 0.086003244 0.085350916 -0.05945156 -0.023190565 0.017066425 -0.07149244 -0.019002547
-0.079736665 0.08334976 -0.10420276 -0.019646682 -0.033434357 -0.06646111 -0.08791315 0.0074237306
-0.03253455 0.11253293 -0.100773245 0.26554525 -0.2369346 0.121517874 0.008243384 -0.025628358
0.11292436 0.38333055 0.20493287 -0.19580767 -0.11112156 0.10093093 0.13114753 0.09789495
-0.054023594 0.25107387 0.22542274 0.15082797 0.19632259 -0.08702067 0.11888425 -0.011627866
0.039326414 -0.085477255 -0.05862091 -0.09945932 0.15069619 -0.27837333 0.11663682 0.18137959

layer3.0.bias f4 [16]
00000000: 0c6b ff3b 9414 bb3e adcb 9a3e c7de 0fbe
00000010: 2c5a 2fbd e221 8bbd c88a b1bd 8756 b7bd
00000020: ae9c 063f 5fbd d53e 19d4 ed3e 0055 0f3f
00000030: 1578 e0bd 329b 1abe 2511 4cbe ff66 f23e
0.0077947434 0.36539137 0.30233517 -0.14049827 -0.042810604 -0.06793572 -0.086690485 -0.08952051
0.52582824 0.4174604 0.4645088 0.55989075 -0.10960404 -0.15098265 -0.19928415 0.47344205

output_layer.weight f4 [1, 16]
00000000: eb03 c73d 7e6c d5be 5e0b 1ebf 2ada 1e3e
00000010: 0a27 443e 4708 c23d a749 8d3e feae ac3d
00000020: 853b 17bf 664d 1dbf 8816 ebbe e45c e3be
00000030: 276a 3f3e 7f22 003e 081e b63d c11e d6be
0.09717544 -0.41684335 -0.61736095 0.1551291 0.19155517 0.09474235 0.27595255 0.084318146
-0.59075195 -0.61446226 -0.45915627 -0.44406807 0.18692838 0.12513159 0.08892447 -0.41820338
